…
    "logger_kwargs_":	{
        "exp_name":	"ddpg",
        "output_dir":	"/Users/Ali/Documents/BAI/Master/master-thesis/Code/Python/sanbox/human/data/ddpg/ddpg_s0"
    },
    "max_ep_len":	6000,
    "num_test_episodes":	10,
    "obs_dim":	[
        376
    ],
    "p":	"Parameter containing:\ntensor([-0.0230])",
    "pi_lr":	0.001,
    "polyak":	0.995,
    "q_lr":	0.001,
    "replay_size":	1000000,
    "save_freq":	1,
    "seed_":	0,
    "self":	{
        "<DDPG.DDPG object at 0x15cf9e650>":	{
            "ac":	{
                "MLPActorCritic(\n  (pi): MLPActor(\n    (pi): Sequential(\n      (0): Linear(in_features=376, out_features=1024, bias=True)\n      (1): Tanh()\n      (2): Linear(in_features=1024, out_features=1024, bias=True)\n      (3): Tanh()\n      (4): Linear(in_features=1024, out_features=1024, bias=True)\n      (5): Tanh()\n      (6): Linear(in_features=1024, out_features=17, bias=True)\n      (7): Tanh()\n    )\n  )\n  (q): MLPQFunction(\n    (q): Sequential(\n      (0): Linear(in_features=393, out_features=1024, bias=True)\n      (1): Tanh()\n      (2): Linear(in_features=1024, out_features=1024, bias=True)\n      (3): Tanh()\n      (4): Linear(in_features=1024, out_features=1024, bias=True)\n      (5): Tanh()\n      (6): Linear(in_features=1024, out_features=1, bias=True)\n      (7): Identity()\n    )\n  )\n)":	{
                    "_backward_hooks":	{},
                    "_backward_pre_hooks":	{},
                    "_buffers":	{},
                    "_forward_hooks":	{},
                    "_forward_hooks_always_called":	{},
                    "_forward_hooks_with_kwargs":	{},
                    "_forward_pre_hooks":	{},
                    "_forward_pre_hooks_with_kwargs":	{},
                    "_is_full_backward_hook":	null,
                    "_load_state_dict_post_hooks":	{},
                    "_load_state_dict_pre_hooks":	{},
                    "_modules":	{
                        "pi":	{
                            "MLPActor(\n  (pi): Sequential(\n    (0): Linear(in_features=376, out_features=1024, bias=True)\n    (1): Tanh()\n    (2): Linear(in_features=1024, out_features=1024, bias=True)\n    (3): Tanh()\n    (4): Linear(in_features=1024, out_features=1024, bias=True)\n    (5): Tanh()\n    (6): Linear(in_features=1024, out_features=17, bias=True)\n    (7): Tanh()\n  )\n)":	{
                                "_backward_hooks":	{},
                                "_backward_pre_hooks":	{},
                                "_buffers":	{},
                                "_forward_hooks":	{},
                                "_forward_hooks_always_called":	{},
                                "_forward_hooks_with_kwargs":	{},
                                "_forward_pre_hooks":	{},
                                "_forward_pre_hooks_with_kwargs":	{},
                                "_is_full_backward_hook":	null,
                                "_load_state_dict_post_hooks":	{},
                                "_load_state_dict_pre_hooks":	{},
                                "_modules":	{
                                    "pi":	{
                                        "Sequential(\n  (0): Linear(in_features=376, out_features=1024, bias=True)\n  (1): Tanh()\n  (2): Linear(in_features=1024, out_features=1024, bias=True)\n  (3): Tanh()\n  (4): Linear(in_features=1024, out_features=1024, bias=True)\n  (5): Tanh()\n  (6): Linear(in_features=1024, out_features=17, bias=True)\n  (7): Tanh()\n)":	{
                                            "_backward_hooks":	{},
                                            "_backward_pre_hooks":	{},
                                            "_buffers":	{},
                                            "_forward_hooks":	{},
                                            "_forward_hooks_always_called":	{},
…
                                        }
                                    }
                                },
                                "_non_persistent_buffers_set":	"set()",
                                "_parameters":	{},
                                "_state_dict_hooks":	{},
                                "_state_dict_pre_hooks":	{},
                                "act_limit":	"0.4",
                                "training":	true
                            }
                        },
                        "q":	{
                            "MLPQFunction(\n  (q): Sequential(\n    (0): Linear(in_features=393, out_features=1024, bias=True)\n    (1): Tanh()\n    (2): Linear(in_features=1024, out_features=1024, bias=True)\n    (3): Tanh()\n    (4): Linear(in_features=1024, out_features=1024, bias=True)\n    (5): Tanh()\n    (6): Linear(in_features=1024, out_features=1, bias=True)\n    (7): Identity()\n  )\n)":	{
                                "_backward_hooks":	{},
                                "_backward_pre_hooks":	{},
                                "_buffers":	{},
                                "_forward_hooks":	{},
                                "_forward_hooks_always_called":	{},
                                "_forward_hooks_with_kwargs":	{},
                                "_forward_pre_hooks":	{},
                                "_forward_pre_hooks_with_kwargs":	{},
                                "_is_full_backward_hook":	null,
                                "_load_state_dict_post_hooks":	{},
                                "_load_state_dict_pre_hooks":	{},
                                "_modules":	{
                                    "q":	{
                                        "Sequential(\n  (0): Linear(in_features=393, out_features=1024, bias=True)\n  (1): Tanh()\n  (2): Linear(in_features=1024, out_features=1024, bias=True)\n  (3): Tanh()\n  (4): Linear(in_features=1024, out_features=1024, bias=True)\n  (5): Tanh()\n  (6): Linear(in_features=1024, out_features=1, bias=True)\n  (7): Identity()\n)":	{
                                            "_backward_hooks":	{},
                                            "_backward_pre_hooks":	{},
                                            "_buffers":	{},
                                            "_forward_hooks":	{},
                                            "_forward_hooks_always_called":	{},
…
